Project/Assets/Scripts/movetogoal_model.onnx (onnx, 1291 bytes, 4 tensors)

fc1.bias f4 [32]
-0.45186567 -0.40908998 0.4659688 -0.36505315 0.46429208 -0.42923218 0.25700614 0.20228024
0.3598801 -0.2761065 0.3657591 -0.1543997 0.21055724 0.51363826 0.19508669 0.24195404
-0.36993802 -0.35406202 -0.17818478 0.02894758 -0.11355066 0.014287109 0.4607668 -0.37521225
0.23862581 -0.24510351 0.022286631 -0.15241061 -0.4107933 0.3986036 -0.334868 0.08216065
00000000: f05a e7be 3e74 d1be 7693 ee3e 3fe8 babe
00000010: b1b7 ed3e 52c4 dbbe 4f96 833e 8d22 4f3e
00000020: 3442 b83e d55d 8dbe c744 bb3e f41a 1ebe
00000030: 519c 573e cc7d 033f cec4 473e cdc2 773e
00000040: 8468 bdbe 9e47 b5be 1276 36be 7a23 ed3c
00000050: 408d e8bd 7a14 6a3c a0e9 eb3e d21b c0be
00000060: 535a 743e 6afc 7abe 7492 b63c 8711 1cbe
00000070: 8053 d2be c515 cc3e d273 abbe d843 a83d

fc1.weight f4 [32, 4]
-0.35559487 -0.070874214 -0.3146308 0.26525867 0.4087028 -0.48639822 -0.19203073 0.20704097
0.3614817 -0.4287192 0.4774436 0.20123108 -0.36588153 0.40862662 0.38046792 0.07361834
0.09360081 0.23001945 -0.33780307 -0.027477618 -0.3979531 0.17180729 -0.4930761 -0.42803323
0.43942955 0.43715158 -0.020081017 -0.2892417 -0.48868057 0.22517753 -0.49187064 -0.43433446
0.27356476 -0.264851 0.37263957 0.4166763 0.30525082 0.23305835 -0.1533906 0.4011736
-0.47222874 0.3981125 -0.39899603 0.024345309 -0.46110684 -0.37936437 0.2582866 -0.28038442
-0.2148151 0.04864764 -0.19929443 -0.29901093 0.0385236 -0.24828185 0.43420842 0.34498954
-0.07587736 0.23295769 0.2871576 0.4736025 0.013293234 0.050642043 0.16768785 -0.04475384
-0.14259171 -0.48848754 -0.26175135 -0.17135817 -0.0033060908 0.4258479 -0.43849593 -0.15554184
0.17185517 -0.06662027 0.27219284 0.16297156 -0.14597943 0.31419766 0.4850422 -0.26118687
-0.105850056 0.23462074 0.09512076 0.011846098 -0.4176085 -0.3747275 0.49479058 0.49315232
-0.1767136 0.2736773 0.040004186 0.36819467 0.2853499 -0.34379053 -0.3194428 -0.18383735
0.017447766 0.025777169 0.27796468 0.1157029 -0.37349272 0.030183485 -0.06240293 0.38402173
-0.4749278 0.081078455 -0.21215162 0.40825158 0.2089186 -0.20820346 -0.065610304 0.101707526
0.29638243 0.36370498 -0.3833931 -0.38258624 0.46201256 0.064924695 -0.2884956 -0.34057185
0.20208627 -0.21565622 0.18368149 -0.10690802 -0.3251953 0.00086520234 -0.37043563 0.069881365
00000000: 8810 b6be 8026 91bd 4a17 a1be fccf 873e
00000010: 7e41 d13e 3009 f9be b4a3 44be 8c02 543e
00000020: 2114 b93e 1581 dbbe 7d73 f43e 850f 4e3e
00000030: d354 bbbe 8237 d13e b1cc c23e 36c5 963d
00000040: c8b1 bf3d 388a 6b3e 86f4 acbe be18 e1bc
00000050: 82c0 cbbe 40ee 2f3e 7874 fcbe 2c27 dbbe
00000060: e9fc e03e 55d2 df3e f280 a4bc 7d17 94be
00000070: 5734 fabe f094 663e 78d6 fbbe 1661 debe
00000080: ae10 8c3e 8d9a 87be 9dca be3e 9956 d53e
00000090: d649 9c3e d9a6 6e3e 6d12 1dbe a066 cd3e
000000a0: f7c7 f1be 67d5 cb3e 3549 ccbe d06f c73c
000000b0: 3216 ecbe 0c3c c2be 243e 843e 8c8e 8fbe
000000c0: 7df8 5bbe bf42 473d d713 4cbe f617 99be
000000d0: ecca 1d3d 993d 7ebe 9150 de3e 78a2 b03e
000000e0: 9765 9bbd 768c 6e3e 5206 933e 077c f23e
000000f0: ddcb 593c 086e 4f3d 5db6 2b3e cd4f 37bd
00000100: 9003 12be 0a1b fabe 4604 86be 8478 2fbe
00000110: 00ab 58bb bc08 da3e 8a82 e0be 5c46 1fbe
00000120: cdfa 2f3e 3570 88bd dc5c 8b3e 04e2 263e
00000130: a27b 15be 84de a03e 7457 f83e 49ba 85be
00000140: eac7 d8bd 6b40 703e acce c23d 2316 423c
00000150: c8d0 d5be 48dc bfbe 3155 fd3e 767e fc3e
00000160: 69f4 34be 6e1f 8c3e 6edb 233d 0384 bc3e
00000170: 6219 923e 5005 b0be 028e a3be dc3f 3cbe
00000180: 9eee 8e3c a42a d33c 6351 8e3e a4f5 ec3d
00000190: 703a bfbe 5b43 f73c 379a 7fbd 7f9e c43e
000001a0: bd29 f3be 760c a63d 463e 59be 5a06 d13e
000001b0: c2ee 553e 4a33 55be b25e 86bd 094c d03d
000001c0: 70bf 973e 8a37 ba3e 1a4c c4be 58e2 c3be
000001d0: e98c ec3e 3df7 843d b2b5 93be 6f5f aebe
000001e0: b4ef 4e3e fcd4 5cbe 0017 3c3e 98f2 dabd
000001f0: 0080 a6be bfce 623a bda9 bdbe f61d 8f3d

fc2.bias f4 [2]
0.16928385 0.14999887
00000000: bf58 2d3e 4e99 193e

fc2.weight f4 [2, 32]
-0.018694565 -0.0865228 0.19530061 -0.11256651 0.088628344 -0.0037034005 0.1005925 -0.09412252
-0.07259595 0.014951222 0.21133609 -0.15901992 0.1605787 0.20483026 -0.16432932 -0.13742797
-0.043274745 -0.16388336 -0.19289102 -0.066567205 0.049277928 -0.10553122 0.1888396 0.16780455
0.027826628 0.0054863696 0.09642381 -0.11452701 0.016614541 -0.025322149 -0.14847249 0.017105538
0.14087029 0.08149736 0.07511461 -0.02868978 0.17430665 -0.069735266 -0.050317414 -0.17023437
-0.11086932 -0.1388911 -0.057175916 -0.15262766 -0.029856013 0.16633189 -0.13356845 0.12690426
-0.064224206 0.0036349297 -0.030639535 0.12812215 -0.06936817 0.045817334 0.11496832 -0.08480224
0.14069661 0.11654717 0.1560161 -0.053679455 -0.04951325 0.25400102 0.071586564 -0.14656407
00000000: 5825 99bc de32 b1bd e2fc 473e 4589 e6bd
00000010: c782 b53d c0b4 72bb 7103 ce3d 4fc3 c0bd
00000020: 2fad 94bd f8f5 743c 7d68 583e 1ed6 22be
00000030: be6e 243e 06bf 513e f245 28be ebb9 0cbe
00000040: dc40 31bd 0ad1 27be 3985 45be 6354 88bd
00000050: a7d7 493d c120 d8bd 2b5f 413e f5d4 2b3e
00000060: abf4 e33c 01c7 b33b d979 c53d 238d eabd
00000070: 381b 883c 6570 cfbc 2c09 18be ea20 8c3c
00000080: 4d40 103e 16e8 a63d b0d5 993d d406 ebbc
00000090: 717d 323e 5dd1 8ebd a219 4ebd eb51 2ebe
000000a0: 740f e3bd 7839 0ebe 4b31 6abd 6d4a 1cbe
000000b0: 9994 f4bc e852 2a3e 2bc6 08be 31f3 013e
000000c0: fb87 83bd 0038 6e3b c3ff fabc 7432 033e
000000d0: e610 8ebd f5aa 3b3d 8374 eb3d ccac adbd
000000e0: c612 103e 48b0 ee3d afc2 1f3e fdde 5bbd
000000f0: 68ce 4abd 6c0c 823e fa9b 923d e414 16be
